…
  File "/home/usp/pro0255/diploma/venv/lib/python3.9/site-packages/ipykernel/kernelbase.py", line 461, in dispatch_queue
    await self.process_one()
  File "/home/usp/pro0255/diploma/venv/lib/python3.9/site-packages/ipykernel/kernelbase.py", line 450, in process_one
    await dispatch(*args)
TypeError: object NoneType can't be used in 'await' expression
Model: "sequential_5"
_________________________________________________________________
 Layer (type)                Output Shape              Param #   
=================================================================
 conv2d_30 (Conv2D)          (None, 150, 150, 32)      320       
                                                                 
 batch_normalization_30 (Bat  (None, 150, 150, 32)     128       
 chNormalization)                                                
                                                                 
 conv2d_31 (Conv2D)          (None, 150, 150, 32)      9248      
                                                                 
 batch_normalization_31 (Bat  (None, 150, 150, 32)     128       
 chNormalization)                                                
                                                                 
 max_pooling2d_15 (MaxPoolin  (None, 75, 75, 32)       0         
 g2D)                                                            
                                                                 
 dropout_20 (Dropout)        (None, 75, 75, 32)        0         
                                                                 
 conv2d_32 (Conv2D)          (None, 75, 75, 64)        18496     
                                                                 
 batch_normalization_32 (Bat  (None, 75, 75, 64)       256       
 chNormalization)                                                
                                                                 
 conv2d_33 (Conv2D)          (None, 75, 75, 64)        36928     
                                                                 
 batch_normalization_33 (Bat  (None, 75, 75, 64)       256       
 chNormalization)                                                
                                                                 
 max_pooling2d_16 (MaxPoolin  (None, 37, 37, 64)       0         
 g2D)                                                            
                                                                 
 dropout_21 (Dropout)        (None, 37, 37, 64)        0         
                                                                 
 conv2d_34 (Conv2D)          (None, 37, 37, 128)       73856     
                                                                 
 batch_normalization_34 (Bat  (None, 37, 37, 128)      512       
 chNormalization)                                                
                                                                 
 conv2d_35 (Conv2D)          (None, 37, 37, 128)       147584    
                                                                 
 batch_normalization_35 (Bat  (None, 37, 37, 128)      512       
 chNormalization)                                                
                                                                 
 max_pooling2d_17 (MaxPoolin  (None, 18, 18, 128)      0         
 g2D)                                                            
                                                                 
 dropout_22 (Dropout)        (None, 18, 18, 128)       0         
                                                                 
 flatten_5 (Flatten)         (None, 41472)             0         
                                                                 
 dense_10 (Dense)            (None, 128)               5308544   
                                                                 
 dropout_23 (Dropout)        (None, 128)               0         
                                                                 
 dense_11 (Dense)            (None, 1)                 129       
                                                                 
=================================================================
Total params: 5,596,897
Trainable params: 5,596,001
Non-trainable params: 896
_________________________________________________________________
Epoch 1/10
  1/163 [..............................] - ETA: 8:04 - loss: 1.5101 - accuracy: 0.3750
…
